…
2025-04-19 12:50:31,094 - INFO - EOS token ID: 1
2025-04-19 12:50:31,109 - INFO - Using device: cuda
2025-04-19 12:50:31,344 - WARNING - Failed to load best_model.pth: [Errno 2] No such file or directory: 'best_model.pth'
2025-04-19 12:50:31,345 - WARNING - Failed to load final_model.pth: [Errno 2] No such file or directory: 'final_model.pth'
2025-04-19 12:50:31,345 - WARNING - Failed to load model_full.pth: [Errno 2] No such file or directory: 'model_full.pth'
2025-04-19 12:50:31,345 - INFO - Model device: cuda:0
2025-04-19 12:50:31,345 - INFO - Model architecture: IntelGuardNet(
  (embedding): Embedding(32003, 256)
  (token_type_embeddings): Embedding(4, 256)
  (position_embeddings): Embedding(512, 256)
  (transformer): Transformer(
    (encoder): TransformerEncoder(
      (layers): ModuleList(
        (0-3): 4 x TransformerEncoderLayer(
          (self_attn): MultiheadAttention(
            (out_proj): NonDynamicallyQuantizableLinear(in_features=256, out_features=256, bias=True)
          )
          (linear1): Linear(in_features=256, out_features=512, bias=True)
          (dropout): Dropout(p=0.1, inplace=False)
          (linear2): Linear(in_features=512, out_features=256, bias=True)
          (norm1): LayerNorm((256,), eps=1e-05, elementwise_affine=True)
          (norm2): LayerNorm((256,), eps=1e-05, elementwise_affine=True)
          (dropout1): Dropout(p=0.1, inplace=False)
          (dropout2): Dropout(p=0.1, inplace=False)
        )
      )
      (norm): LayerNorm((256,), eps=1e-05, elementwise_affine=True)
    )
    (decoder): TransformerDecoder(
      (layers): ModuleList(
        (0-3): 4 x TransformerDecoderLayer(
          (self_attn): MultiheadAttention(
            (out_proj): NonDynamicallyQuantizableLinear(in_features=256, out_features=256, bias=True)
          )
          (multihead_attn): MultiheadAttention(
            (out_proj): NonDynamicallyQuantizableLinear(in_features=256, out_features=256, bias=True)
          )
          (linear1): Linear(in_features=256, out_features=512, bias=True)
          (dropout): Dropout(p=0.1, inplace=False)
          (linear2): Linear(in_features=512, out_features=256, bias=True)
          (norm1): LayerNorm((256,), eps=1e-05, elementwise_affine=True)
          (norm2): LayerNorm((256,), eps=1e-05, elementwise_affine=True)
          (norm3): LayerNorm((256,), eps=1e-05, elementwise_affine=True)
          (dropout1): Dropout(p=0.1, inplace=False)
          (dropout2): Dropout(p=0.1, inplace=False)
          (dropout3): Dropout(p=0.1, inplace=False)
        )
      )
      (norm): LayerNorm((256,), eps=1e-05, elementwise_affine=True)
    )
  )
  (norm): LayerNorm((256,), eps=1e-05, elementwise_affine=True)
  (fc_out): Linear(in_features=256, out_features=32003, bias=True)
  (syntax_gate): Sequential(
    (0): Linear(in_features=256, out_features=256, bias=True)
    (1): Sigmoid()
  )
)
2025-04-19 12:50:31,346 - INFO - 
==================================================
2025-04-19 12:50:31,346 - INFO - Processing input: Target: localhost, Iden: ip address, Stat: up, Ports: '21': 'vsftpd 3.0.5'; '22': 'openssh 8.9p1', OS: windows
2025-04-19 12:50:31,366 - INFO - Input IDs: tensor([[12615,    10,   415, 12675,     6,    27,   537,    10,     3,    23,
…
